nohup: ignoring input
Namespace(batch_size=512, dataset_dir='datasets/diginetica', embedding_dim=32, epochs=30, feat_drop=0.2, log_interval=100, lr=0.001, num_layers=4, num_workers=4, patience=3, valid_split=None, weight_decay=0.0001)
reading dataset
993
cuda
LESSR(
  (embedding): Embedding(42596, 32, max_norm=1)
  (category_embedding): Embedding(993, 32, max_norm=1)
  (price_embedding): Embedding(15, 32, max_norm=1)
  (layers): ModuleList(
    (0): EOPA(
      (batch_norm): BatchNorm1d(32, eps=1e-05, momentum=0.1, affine=True, track_running_stats=True)
      (feat_drop): Dropout(p=0.2, inplace=False)
      (gru): GRU(32, 32, batch_first=True)
      (fc_self): Linear(in_features=32, out_features=32, bias=False)
      (fc_neigh): Linear(in_features=32, out_features=32, bias=False)
      (activation): PReLU(num_parameters=32)
    )
    (1): SGAT(
      (batch_norm): BatchNorm1d(64, eps=1e-05, momentum=0.1, affine=True, track_running_stats=True)
      (feat_drop): Dropout(p=0.2, inplace=False)
      (fc_q): Linear(in_features=64, out_features=32, bias=True)
      (fc_k): Linear(in_features=64, out_features=32, bias=False)
      (fc_v): Linear(in_features=64, out_features=32, bias=False)
      (fc_e): Linear(in_features=32, out_features=1, bias=False)
      (activation): PReLU(num_parameters=32)
    )
    (2): EOPA(
      (batch_norm): BatchNorm1d(96, eps=1e-05, momentum=0.1, affine=True, track_running_stats=True)
      (feat_drop): Dropout(p=0.2, inplace=False)
      (gru): GRU(96, 96, batch_first=True)
      (fc_self): Linear(in_features=96, out_features=32, bias=False)
      (fc_neigh): Linear(in_features=96, out_features=32, bias=False)
      (activation): PReLU(num_parameters=32)
    )
    (3): SGAT(
      (batch_norm): BatchNorm1d(128, eps=1e-05, momentum=0.1, affine=True, track_running_stats=True)
      (feat_drop): Dropout(p=0.2, inplace=False)
      (fc_q): Linear(in_features=128, out_features=32, bias=True)
      (fc_k): Linear(in_features=128, out_features=32, bias=False)
      (fc_v): Linear(in_features=128, out_features=32, bias=False)
      (fc_e): Linear(in_features=32, out_features=1, bias=False)
      (activation): PReLU(num_parameters=32)
    )
  )
  (intend): Intend(
    (batch_norm): BatchNorm1d(20, eps=1e-05, momentum=0.1, affine=True, track_running_stats=True)
    (feat_drop): Dropout(p=0.2, inplace=False)
    (gru): GRU(32, 160, batch_first=True)
    (activation): ReLU()
  )
  (price_aware): PriceAware(
    (batch_norm): BatchNorm1d(32, eps=1e-05, momentum=0.1, affine=True, track_running_stats=True)
    (price_factor): Linear(in_features=32, out_features=160, bias=True)
    (activation): Sigmoid()
  )
  (readout): AttnReadout(
    (batch_norm): BatchNorm1d(160, eps=1e-05, momentum=0.1, affine=True, track_running_stats=True)
    (feat_drop): Dropout(p=0.2, inplace=False)
    (fc_u): Linear(in_features=160, out_features=32, bias=False)
    (fc_v): Linear(in_features=160, out_features=32, bias=True)
    (fc_e): Linear(in_features=32, out_features=1, bias=False)
    (fc_out): Linear(in_features=160, out_features=32, bias=False)
    (activation): PReLU(num_parameters=32)
  )
  (batch_norm): BatchNorm1d(192, eps=1e-05, momentum=0.1, affine=True, track_running_stats=True)
  (feat_drop): Dropout(p=0.2, inplace=False)
  (fc_sr): Linear(in_features=192, out_features=32, bias=False)
)
start training
Using backend: pytorch
Batch 100: Loss = 10.7575, Time Elapsed = 152.43s
Batch 200: Loss = 10.4687, Time Elapsed = 148.29s
Batch 300: Loss = 10.1681, Time Elapsed = 148.18s
Batch 400: Loss = 9.7405, Time Elapsed = 148.06s
Batch 500: Loss = 9.3004, Time Elapsed = 148.04s
Batch 600: Loss = 8.9068, Time Elapsed = 144.84s
Batch 700: Loss = 8.5401, Time Elapsed = 144.80s
…
